
True
Models(
  (Conv): Sequential(
    (0): Conv2d(3, 64, kernel_size=(3, 3), stride=(1, 1), padding=(1, 1))
    (1): ReLU()
    (2): Conv2d(64, 64, kernel_size=(3, 3), stride=(1, 1), padding=(1, 1))
    (3): ReLU()
    (4): MaxPool2d(kernel_size=2, stride=2, padding=0, dilation=1, ceil_mode=False)
    (5): Conv2d(64, 128, kernel_size=(3, 3), stride=(1, 1), padding=(1, 1))
    (6): ReLU()
    (7): Conv2d(128, 128, kernel_size=(3, 3), stride=(1, 1), padding=(1, 1))
    (8): ReLU()
    (9): MaxPool2d(kernel_size=2, stride=2, padding=0, dilation=1, ceil_mode=False)
    (10): Conv2d(128, 256, kernel_size=(3, 3), stride=(1, 1), padding=(1, 1))
    (11): ReLU()
    (12): Conv2d(256, 256, kernel_size=(3, 3), stride=(1, 1), padding=(1, 1))
    (13): ReLU()
    (14): Conv2d(256, 256, kernel_size=(3, 3), stride=(1, 1), padding=(1, 1))
    (15): ReLU()
    (16): MaxPool2d(kernel_size=2, stride=2, padding=0, dilation=1, ceil_mode=False)
    (17): Conv2d(256, 512, kernel_size=(3, 3), stride=(1, 1), padding=(1, 1))
    (18): ReLU()
    (19): Conv2d(512, 512, kernel_size=(3, 3), stride=(1, 1), padding=(1, 1))
    (20): ReLU()
    (21): Conv2d(512, 512, kernel_size=(3, 3), stride=(1, 1), padding=(1, 1))
    (22): ReLU()
    (23): MaxPool2d(kernel_size=2, stride=2, padding=0, dilation=1, ceil_mode=False)
  )
  (Classes): Sequential(
    (0): Linear(in_features=8192, out_features=1024, bias=True)
    (1): ReLU()
    (2): Dropout(p=0.5)
    (3): Linear(in_features=1024, out_features=1024, bias=True)
    (4): Sigmoid()
    (5): Dropout(p=0.5)
    (6): Linear(in_features=1024, out_features=2, bias=True)
  )
)
 
lr = 0.00001:

Epoch 0/19
----------
Training...
Batch400,Train Loss:0.4676,Train Acc:77.2500%
Batch800,Train Loss:0.3491,Train Acc:84.1953%
train Loss:0.3342 Acc:85.0929%
Validing...
valid Loss:0.4432 Acc:86.2571%
Epoch 1/19
----------
Training...
Batch400,Train Loss:0.1886,Train Acc:92.6562%
Batch800,Train Loss:0.1918,Train Acc:92.5625%
…
Batch800,Train Loss:0.0778,Train Acc:97.0078%
train Loss:0.0774 Acc:97.0143%
Validing...
valid Loss:1.6240 Acc:79.1143%
Epoch 18/19
----------
Training...
Batch400,Train Loss:0.0827,Train Acc:96.9062%
Batch800,Train Loss:0.0814,Train Acc:96.8906%
train Loss:0.0803 Acc:96.9000%
Validing...
valid Loss:1.7491 Acc:78.3429%
Epoch 19/19
----------
Training...
Batch400,Train Loss:0.0766,Train Acc:96.9688%
Batch800,Train Loss:0.0731,Train Acc:97.2266%
train Loss:0.0740 Acc:97.1429%
Validing...
valid Loss:1.8233 Acc:77.3714%
2651.8499524593353


p = 0.5,加入batchnorm
True
Models(
  (Conv): Sequential(
    (0): Conv2d(3, 64, kernel_size=(3, 3), stride=(1, 1), padding=(1, 1))
    (1): BatchNorm2d(64, eps=1e-05, momentum=0.1, affine=True, track_running_stats=True)
    (2): ReLU()
    (3): Conv2d(64, 64, kernel_size=(3, 3), stride=(1, 1), padding=(1, 1))
    (4): BatchNorm2d(64, eps=1e-05, momentum=0.1, affine=True, track_running_stats=True)
    (5): ReLU()
    (6): MaxPool2d(kernel_size=2, stride=2, padding=0, dilation=1, ceil_mode=False)
    (7): Conv2d(64, 128, kernel_size=(3, 3), stride=(1, 1), padding=(1, 1))
    (8): BatchNorm2d(128, eps=1e-05, momentum=0.1, affine=True, track_running_stats=True)
    (9): ReLU()
    (10): Conv2d(128, 128, kernel_size=(3, 3), stride=(1, 1), padding=(1, 1))
    (11): BatchNorm2d(128, eps=1e-05, momentum=0.1, affine=True, track_running_stats=True)
    (12): ReLU()
    (13): MaxPool2d(kernel_size=2, stride=2, padding=0, dilation=1, ceil_mode=False)
    (14): Conv2d(128, 256, kernel_size=(3, 3), stride=(1, 1), padding=(1, 1))
    (15): BatchNorm2d(256, eps=1e-05, momentum=0.1, affine=True, track_running_stats=True)
    (16): ReLU()
    (17): Conv2d(256, 256, kernel_size=(3, 3), stride=(1, 1), padding=(1, 1))
    (18): BatchNorm2d(256, eps=1e-05, momentum=0.1, affine=True, track_running_stats=True)
    (19): ReLU()
    (20): Conv2d(256, 256, kernel_size=(3, 3), stride=(1, 1), padding=(1, 1))
    (21): BatchNorm2d(256, eps=1e-05, momentum=0.1, affine=True, track_running_stats=True)
    (22): ReLU()
    (23): MaxPool2d(kernel_size=2, stride=2, padding=0, dilation=1, ceil_mode=False)
    (24): Conv2d(256, 512, kernel_size=(3, 3), stride=(1, 1), padding=(1, 1))
    (25): BatchNorm2d(512, eps=1e-05, momentum=0.1, affine=True, track_running_stats=True)
    (26): ReLU()
    (27): Conv2d(512, 512, kernel_size=(3, 3), stride=(1, 1), padding=(1, 1))
    (28): BatchNorm2d(512, eps=1e-05, momentum=0.1, affine=True, track_running_stats=True)
    (29): ReLU()
    (30): Conv2d(512, 512, kernel_size=(3, 3), stride=(1, 1), padding=(1, 1))
    (31): BatchNorm2d(512, eps=1e-05, momentum=0.1, affine=True, track_running_stats=True)
    (32): ReLU()
    (33): MaxPool2d(kernel_size=2, stride=2, padding=0, dilation=1, ceil_mode=False)
  )
  (Classes): Sequential(
    (0): Linear(in_features=8192, out_features=1024, bias=True)
    (1): ReLU()
    (2): Dropout(p=0.5)
    (3): Linear(in_features=1024, out_features=1024, bias=True)
    (4): Sigmoid()
    (5): Dropout(p=0.5)
    (6): Linear(in_features=1024, out_features=2, bias=True)
  )
)
Epoch 0/19
----------
Training...
Batch400,Train Loss:0.2728,Train Acc:88.2500%
Batch800,Train Loss:0.2211,Train Acc:90.7578%
train Loss:0.2151 Acc:91.0571%
Validing...
valid Loss:0.8611 Acc:82.6857%
Epoch 1/19
----------
Training...
Batch400,Train Loss:0.1318,Train Acc:94.8438%
Batch800,Train Loss:0.1266,Train Acc:95.0391%
train Loss:0.1237 Acc:95.1857%
…
